…
    batch_size: 4
    backend: LMDB
  }
}
layer {
  name: "flow"
  type: "Data"
  top: "flow"
  include {
    phase: TRAIN
  }
  data_param {
    source: "/scratch/groups/lsdavis/yixi/segnet/segnetf1/camvidtrainvalfmp480360f1b1f2b2f4b4np_lmdb/train-flow-lmdb"
    batch_size: 4
    backend: LMDB
  }
}
layer {
  name: "label"
  type: "Data"
  top: "label"
  include {
    phase: TRAIN
  }
  data_param {
    source: "/scratch/groups/lsdavis/yixi/segnet/segnetf1/camvidtrainvalfmp480360f1b1f2b2f4b4np_lmdb/train-label-lmdb"
    batch_size: 4
    backend: LMDB
  }
}
layer {
  name: "normdata"
  type: "LRN"
  bottom: "data"
  top: "data"
  lrn_param {
    local_size: 5
    alpha: 0.0001
    beta: 0.75
  }
}
layer {
  name: "normflow"
  type: "LRN"
  bottom: "flow"
  top: "flow"
  lrn_param {
    local_size: 5
    alpha: 0.0001
    beta: 0.75
  }
}
layer {
  name: "conv1_flow"
  type: "Convolution"
  bottom: "flow"
  top: "conv1_flow"
  param {
    lr_mult: 1
    decay_mult: 1
  }
  param {
    lr_mult: 2
    decay_mult: 0
  }
  convolution_param {
    num_output: 64
    pad: 3
    kernel_size: 7
    weight_filler {
      type: "msra"
    }
    bias_filler {
      type: "constant"
    }
  }
}
layer {
  name: "conv1_flow_bn"
  type: "BN"
  bottom: "conv1_flow"
  top: "conv1_flow"
  bn_param {
    scale_filler {
      type: "constant"
      value: 1
    }
    shift_filler {
      type: "constant"
      value: 0.001
    }
    bn_mode: LEARN
  }
}
layer {
  name: "conv1"
  type: "Convolution"
  bottom: "data"
  top: "conv1"
  param {
    lr_mult: 1
    decay_mult: 1
  }
  param {
    lr_mult: 2
    decay_mult: 0
  }
  convolution_param {
    num_output: 64
    pad: 3
    kernel_size: 7
    weight_filler {
      type: "msra"
    }
    bias_filler {
      type: "constant"
    }
  }
}
layer {
  name: "conv1_bn"
  type: "BN"
  bottom: "conv1"
  top: "conv1"
  bn_param {
    scale_filler {
      type: "constant"
      value: 1
    }
    shift_filler {
      type: "constant"
      value: 0.001
    }
    bn_mode: LEARN
  }
}
layer {
  name: "concat"
  type: "Concat"
  bottom: "conv1"
  bottom: "conv1_flow"
  top: "conv1_concat"
  concat_param {
    axis: 1
  }
}
layer {
  name: "relu1"
  type: "ReLU"
  bottom: "conv1_concat"
  top: "conv1_concat"
}
layer {
  name: "pool1"
  type: "Pooling"
  bottom: "conv1_concat"
  top: "pool1"
  top: "pool1_mask"
  pooling_param {
    pool: MAX
    kernel_size: 2
    stride: 2
  }
}
layer {
  name: "conv2_flow"
  type: "Convolution"
  bottom: "pool1"
  top: "conv2"
  param {
    lr_mult: 1
    decay_mult: 1
  }
  param {
    lr_mult: 2
    decay_mult: 0
  }
  convolution_param {
    num_output: 64
    pad: 3
    kernel_size: 7
    weight_filler {
      type: "msra"
    }
    bias_filler {
      type: "constant"
    }
  }
}
layer {
  name: "conv2_bn"
  type: "BN"
  bottom: "conv2"
  top: "conv2"
  bn_param {
    scale_filler {
      type: "constant"
      value: 1
    }
    shift_filler {
      type: "constant"
      value: 0.001
    }
    bn_mode: LEARN
  }
}
layer {
  name: "relu2"
  type: "ReLU"
  bottom: "conv2"
  top: "conv2"
}
layer {
  name: "pool2"
  type: "Pooling"
  bottom: "conv2"
  top: "pool2"
  top: "pool2_mask"
  pooling_param {
    pool: MAX
    kernel_size: 2
    stride: 2
  }
}
layer {
  name: "conv3"
  type: "Convolution"
  bottom: "pool2"
  top: "conv3"
  param {
    lr_mult: 1
    decay_mult: 1
  }
  param {
    lr_mult: 2
    decay_mult: 0
  }
  convolution_param {
    num_output: 64
    pad: 3
    kernel_size: 7
    weight_filler {
      type: "msra"
    }
    bias_filler {
      type: "constant"
    }
  }
}
layer {
  name: "conv3_bn"
  type: "BN"
  bottom: "conv3"
  top: "conv3"
  bn_param {
    scale_filler {
      type: "constant"
      value: 1
    }
    shift_filler {
      type: "constant"
      value: 0.001
    }
    bn_mode: LEARN
  }
}
layer {
  name: "relu3"
  type: "ReLU"
  bottom: "conv3"
  top: "conv3"
}
layer {
  name: "pool3"
  type: "Pooling"
  bottom: "conv3"
  top: "pool3"
  top: "pool3_mask"
  pooling_param {
    pool: MAX
    kernel_size: 2
    stride: 2
  }
}
layer {
  name: "conv4"
  type: "Convolution"
  bottom: "pool3"
  top: "conv4"
  param {
    lr_mult: 1
    decay_mult: 1
  }
  param {
    lr_mult: 2
    decay_mult: 0
  }
  convolution_param {
    num_output: 64
    pad: 3
    kernel_size: 7
    weight_filler {
      type: "msra"
    }
    bias_filler {
      type: "constant"
    }
  }
}
layer {
  name: "conv4_bn"
  type: "BN"
  bottom: "conv4"
  top: "conv4"
  bn_param {
    scale_filler {
      type: "constant"
      value: 1
    }
    shift_filler {
      type: "constant"
      value: 0.001
    }
    bn_mode: LEARN
  }
}
layer {
  name: "relu4"
  type: "ReLU"
  bottom: "conv4"
  top: "conv4"
}
layer {
  name: "pool4"
  type: "Pooling"
  bottom: "conv4"
  top: "pool4"
  top: "pool4_mask"
  pooling_param {
    pool: MAX
    kernel_size: 2
    stride: 2
  }
}
layer {
  name: "upsample4"
  type: "Upsample"
  bottom: "pool4"
  bottom: "pool4_mask"
  top: "upsample4"
  upsample_param {
    scale: 2
    pad_out_h: true
  }
}
layer {
  name: "conv_decode4"
  type: "Convolution"
  bottom: "upsample4"
  top: "conv_decode4"
  param {
    lr_mult: 1
    decay_mult: 1
  }
  param {
    lr_mult: 2
    decay_mult: 0
  }
  convolution_param {
    num_output: 64
    pad: 3
    kernel_size: 7
    weight_filler {
      type: "msra"
    }
    bias_filler {
      type: "constant"
    }
  }
}
layer {
  name: "conv_decode4_bn"
  type: "BN"
  bottom: "conv_decode4"
  top: "conv_decode4"
  bn_param {
    scale_filler {
      type: "constant"
      value: 1
    }
    shift_filler {
      type: "constant"
      value: 0.001
    }
    bn_mode: LEARN
  }
}
layer {
  name: "upsample3"
  type: "Upsample"
  bottom: "conv_decode4"
  bottom: "pool3_mask"
  top: "upsample3"
  upsample_param {
    scale: 2
  }
}
layer {
  name: "conv_decode3"
  type: "Convolution"
  bottom: "upsample3"
  top: "conv_decode3"
  param {
    lr_mult: 1
    decay_mult: 1
  }
  param {
    lr_mult: 2
    decay_mult: 0
  }
  convolution_param {
    num_output: 64
    pad: 3
    kernel_size: 7
    weight_filler {
      type: "msra"
    }
    bias_filler {
      type: "constant"
    }
  }
}
layer {
  name: "conv_decode3_bn"
  type: "BN"
  bottom: "conv_decode3"
  top: "conv_decode3"
  bn_param {
    scale_filler {
      type: "constant"
      value: 1
    }
    shift_filler {
      type: "constant"
      value: 0.001
    }
    bn_mode: LEARN
  }
}
layer {
  name: "upsample2"
  type: "Upsample"
  bottom: "conv_decode3"
  bottom: "pool2_mask"
  top: "upsample2"
  upsample_param {
    scale: 2
  }
}
layer {
  name: "conv_decode2_flow"
  type: "Convolution"
  bottom: "upsample2"
  top: "conv_decode2"
  param {
    lr_mult: 1
    decay_mult: 1
  }
  param {
    lr_mult: 2
    decay_mult: 0
  }
  convolution_param {
    num_output: 128
    pad: 3
    kernel_size: 7
    weight_filler {
      type: "msra"
    }
    bias_filler {
      type: "constant"
    }
  }
}
layer {
  name: "conv_decode2_bn_flow"
  type: "BN"
  bottom: "conv_decode2"
  top: "conv_decode2"
  bn_param {
    scale_filler {
      type: "constant"
      value: 1
    }
    shift_filler {
      type: "constant"
      value: 0.001
    }
    bn_mode: LEARN
  }
}
layer {
  name: "upsample1"
  type: "Upsample"
  bottom: "conv_decode2"
  bottom: "pool1_mask"
  top: "upsample1"
  upsample_param {
    scale: 2
  }
}
layer {
  name: "conv_decode1_flow"
  type: "Convolution"
  bottom: "upsample1"
  top: "conv_decode1"
  param {
    lr_mult: 1
    decay_mult: 1
  }
  param {
    lr_mult: 2
    decay_mult: 0
  }
  convolution_param {
    num_output: 64
    pad: 3
    kernel_size: 7
    weight_filler {
      type: "msra"
    }
    bias_filler {
      type: "constant"
    }
  }
}
layer {
  name: "conv_decode1_bn"
  type: "BN"
  bottom: "conv_decode1"
  top: "conv_decode1"
  bn_param {
    scale_filler {
      type: "constant"
      value: 1
    }
    shift_filler {
      type: "constant"
      value: 0.001
    }
    bn_mode: LEARN
  }
}
layer {
  name: "dense_softmax_inner_prod"
  type: "Convolution"
  bottom: "conv_decode1"
  top: "conv_classifier"
  param {
    lr_mult: 1
    decay_mult: 1
  }
  param {
    lr_mult: 2
    decay_mult: 0
  }
  convolution_param {
    num_output: 11
    kernel_size: 1
    weight_filler {
      type: "msra"
    }
    bias_filler {
      type: "constant"
    }
  }
}
layer {
  name: "loss"
  type: "SoftmaxWithLoss"
  bottom: "conv_classifier"
  bottom: "label"
  top: "loss"
  loss_param {
    ignore_label: 11
    weight_by_label_freqs: true
    class_weighting: 0.2595
    class_weighting: 0.1826
    class_weighting: 4.564
    class_weighting: 0.1417
    class_weighting: 0.9051
    class_weighting: 0.3826
    class_weighting: 9.6446
    class_weighting: 1.8418
    class_weighting: 0.6823
    class_weighting: 6.2478
    class_weighting: 7.3614
  }
  softmax_param {
    engine: CAFFE
  }
}
layer {
  name: "accuracy"
  type: "Accuracy"
  bottom: "conv_classifier"
  bottom: "label"
  top: "accuracy"
  top: "per_class_accuracy"
}
I0508 16:17:35.166470 124079 layer_factory.hpp:74] Creating layer data
I0508 16:17:35.166522 124079 net.cpp:90] Creating Layer data
I0508 16:17:35.166549 124079 net.cpp:368] data -> data
I0508 16:17:35.166602 124079 net.cpp:120] Setting up data
I0508 16:17:35.216686 124079 db.cpp:34] Opened lmdb /scratch/groups/lsdavis/yixi/segnet/segnetf1/camvidtrainvalfmp480360f1b1f2b2f4b4np_lmdb/train-lmdb
I0508 16:17:35.218114 124079 data_layer.cpp:52] output data size: 4,3,360,480
I0508 16:17:35.226212 124079 net.cpp:127] Top shape: 4 3 360 480 (2073600)
I0508 16:17:35.226253 124079 layer_factory.hpp:74] Creating layer flow
I0508 16:17:35.226275 124079 net.cpp:90] Creating Layer flow
I0508 16:17:35.226294 124079 net.cpp:368] flow -> flow
I0508 16:17:35.226315 124079 net.cpp:120] Setting up flow
I0508 16:17:35.461362 124079 db.cpp:34] Opened lmdb /scratch/groups/lsdavis/yixi/segnet/segnetf1/camvidtrainvalfmp480360f1b1f2b2f4b4np_lmdb/train-flow-lmdb
I0508 16:17:35.466686 124079 data_layer.cpp:52] output data size: 4,12,360,480
I0508 16:17:35.496300 124079 net.cpp:127] Top shape: 4 12 360 480 (8294400)
I0508 16:17:35.496335 124079 layer_factory.hpp:74] Creating layer label
I0508 16:17:35.496358 124079 net.cpp:90] Creating Layer label
I0508 16:17:35.496376 124079 net.cpp:368] label -> label
I0508 16:17:35.496397 124079 net.cpp:120] Setting up label
I0508 16:17:35.546990 124079 db.cpp:34] Opened lmdb /scratch/groups/lsdavis/yixi/segnet/segnetf1/camvidtrainvalfmp480360f1b1f2b2f4b4np_lmdb/train-label-lmdb
I0508 16:17:35.547322 124079 data_layer.cpp:52] output data size: 4,1,360,480
I0508 16:17:35.549353 124079 net.cpp:127] Top shape: 4 1 360 480 (691200)
I0508 16:17:35.549384 124079 layer_factory.hpp:74] Creating layer label_label_0_split
I0508 16:17:35.549412 124079 net.cpp:90] Creating Layer label_label_0_split
I0508 16:17:35.549448 124079 net.cpp:410] label_label_0_split <- label
I0508 16:17:35.549530 124079 net.cpp:368] label_label_0_split -> label_label_0_split_0
I0508 16:17:35.549552 124079 net.cpp:368] label_label_0_split -> label_label_0_split_1
I0508 16:17:35.549571 124079 net.cpp:120] Setting up label_label_0_split
I0508 16:17:35.549593 124079 net.cpp:127] Top shape: 4 1 360 480 (691200)
I0508 16:17:35.549609 124079 net.cpp:127] Top shape: 4 1 360 480 (691200)
I0508 16:17:35.549621 124079 layer_factory.hpp:74] Creating layer normdata
I0508 16:17:35.549644 124079 net.cpp:90] Creating Layer normdata
I0508 16:17:35.549659 124079 net.cpp:410] normdata <- data
I0508 16:17:35.549671 124079 net.cpp:357] normdata -> data (in-place)
I0508 16:17:35.549690 124079 net.cpp:120] Setting up normdata
I0508 16:17:35.549712 124079 net.cpp:127] Top shape: 4 3 360 480 (2073600)
I0508 16:17:35.549726 124079 layer_factory.hpp:74] Creating layer normflow
I0508 16:17:35.549739 124079 net.cpp:90] Creating Layer normflow
I0508 16:17:35.549751 124079 net.cpp:410] normflow <- flow
I0508 16:17:35.549764 124079 net.cpp:357] normflow -> flow (in-place)
I0508 16:17:35.549778 124079 net.cpp:120] Setting up normflow
I0508 16:17:35.549793 124079 net.cpp:127] Top shape: 4 12 360 480 (8294400)
I0508 16:17:35.549804 124079 layer_factory.hpp:74] Creating layer conv1_flow
I0508 16:17:35.549826 124079 net.cpp:90] Creating Layer conv1_flow
I0508 16:17:35.549840 124079 net.cpp:410] conv1_flow <- flow
I0508 16:17:35.549863 124079 net.cpp:368] conv1_flow -> conv1_flow
I0508 16:17:35.549888 124079 net.cpp:120] Setting up conv1_flow
I0508 16:17:35.736974 124079 net.cpp:127] Top shape: 4 64 360 480 (44236800)
I0508 16:17:35.737124 124079 layer_factory.hpp:74] Creating layer conv1_flow_bn
I0508 16:17:35.737179 124079 net.cpp:90] Creating Layer conv1_flow_bn
I0508 16:17:35.737205 124079 net.cpp:410] conv1_flow_bn <- conv1_flow
I0508 16:17:35.737233 124079 net.cpp:357] conv1_flow_bn -> conv1_flow (in-place)
I0508 16:17:35.737272 124079 net.cpp:120] Setting up conv1_flow_bn
I0508 16:17:35.738886 124079 net.cpp:127] Top shape: 4 64 360 480 (44236800)
I0508 16:17:35.738937 124079 layer_factory.hpp:74] Creating layer conv1
I0508 16:17:35.738977 124079 net.cpp:90] Creating Layer conv1
I0508 16:17:35.739001 124079 net.cpp:410] conv1 <- data
I0508 16:17:35.739025 124079 net.cpp:368] conv1 -> conv1
I0508 16:17:35.739054 124079 net.cpp:120] Setting up conv1
I0508 16:17:35.741559 124079 net.cpp:127] Top shape: 4 64 360 480 (44236800)
I0508 16:17:35.741634 124079 layer_factory.hpp:74] Creating layer conv1_bn
I0508 16:17:35.741669 124079 net.cpp:90] Creating Layer conv1_bn
I0508 16:17:35.741693 124079 net.cpp:410] conv1_bn <- conv1
I0508 16:17:35.741717 124079 net.cpp:357] conv1_bn -> conv1 (in-place)
I0508 16:17:35.741744 124079 net.cpp:120] Setting up conv1_bn
I0508 16:17:35.743357 124079 net.cpp:127] Top shape: 4 64 360 480 (44236800)
I0508 16:17:35.743403 124079 layer_factory.hpp:74] Creating layer concat
I0508 16:17:35.743438 124079 net.cpp:90] Creating Layer concat
I0508 16:17:35.743461 124079 net.cpp:410] concat <- conv1
I0508 16:17:35.743484 124079 net.cpp:410] concat <- conv1_flow
I0508 16:17:35.743506 124079 net.cpp:368] concat -> conv1_concat
I0508 16:17:35.743537 124079 net.cpp:120] Setting up concat
I0508 16:17:35.743572 124079 net.cpp:127] Top shape: 4 128 360 480 (88473600)
I0508 16:17:35.743594 124079 layer_factory.hpp:74] Creating layer relu1
I0508 16:17:35.743620 124079 net.cpp:90] Creating Layer relu1
I0508 16:17:35.743641 124079 net.cpp:410] relu1 <- conv1_concat
I0508 16:17:35.743662 124079 net.cpp:357] relu1 -> conv1_concat (in-place)
I0508 16:17:35.743685 124079 net.cpp:120] Setting up relu1
I0508 16:17:35.744043 124079 net.cpp:127] Top shape: 4 128 360 480 (88473600)
I0508 16:17:35.744086 124079 layer_factory.hpp:74] Creating layer pool1
I0508 16:17:35.744114 124079 layer_factory.cpp:55] CUDNN does not support padding or multiple tops. Using Caffe's own pooling layer.
I0508 16:17:35.744141 124079 net.cpp:90] Creating Layer pool1
I0508 16:17:35.744163 124079 net.cpp:410] pool1 <- conv1_concat
I0508 16:17:35.744226 124079 net.cpp:368] pool1 -> pool1
I0508 16:17:35.744325 124079 net.cpp:368] pool1 -> pool1_mask
I0508 16:17:35.744355 124079 net.cpp:120] Setting up pool1
I0508 16:17:35.744410 124079 net.cpp:127] Top shape: 4 128 180 240 (22118400)
I0508 16:17:35.744436 124079 net.cpp:127] Top shape: 4 128 180 240 (22118400)
I0508 16:17:35.744457 124079 layer_factory.hpp:74] Creating layer conv2_flow
I0508 16:17:35.744484 124079 net.cpp:90] Creating Layer conv2_flow
I0508 16:17:35.744504 124079 net.cpp:410] conv2_flow <- pool1
I0508 16:17:35.744529 124079 net.cpp:368] conv2_flow -> conv2
I0508 16:17:35.744555 124079 net.cpp:120] Setting up conv2_flow
I0508 16:17:35.760805 124079 net.cpp:127] Top shape: 4 64 180 240 (11059200)
I0508 16:17:35.760890 124079 layer_factory.hpp:74] Creating layer conv2_bn
I0508 16:17:35.760926 124079 net.cpp:90] Creating Layer conv2_bn
I0508 16:17:35.760949 124079 net.cpp:410] conv2_bn <- conv2
I0508 16:17:35.760985 124079 net.cpp:357] conv2_bn -> conv2 (in-place)
I0508 16:17:35.761015 124079 net.cpp:120] Setting up conv2_bn
I0508 16:17:35.761447 124079 net.cpp:127] Top shape: 4 64 180 240 (11059200)
I0508 16:17:35.761488 124079 layer_factory.hpp:74] Creating layer relu2
I0508 16:17:35.761514 124079 net.cpp:90] Creating Layer relu2
I0508 16:17:35.761534 124079 net.cpp:410] relu2 <- conv2
I0508 16:17:35.761560 124079 net.cpp:357] relu2 -> conv2 (in-place)
I0508 16:17:35.761585 124079 net.cpp:120] Setting up relu2
I0508 16:17:35.761960 124079 net.cpp:127] Top shape: 4 64 180 240 (11059200)
I0508 16:17:35.762004 124079 layer_factory.hpp:74] Creating layer pool2
I0508 16:17:35.762028 124079 layer_factory.cpp:55] CUDNN does not support padding or multiple tops. Using Caffe's own pooling layer.
I0508 16:17:35.762058 124079 net.cpp:90] Creating Layer pool2
I0508 16:17:35.762081 124079 net.cpp:410] pool2 <- conv2
I0508 16:17:35.762105 124079 net.cpp:368] pool2 -> pool2
I0508 16:17:35.762137 124079 net.cpp:368] pool2 -> pool2_mask
I0508 16:17:35.762164 124079 net.cpp:120] Setting up pool2
I0508 16:17:35.762193 124079 net.cpp:127] Top shape: 4 64 90 120 (2764800)
I0508 16:17:35.762215 124079 net.cpp:127] Top shape: 4 64 90 120 (2764800)
I0508 16:17:35.762233 124079 layer_factory.hpp:74] Creating layer conv3
I0508 16:17:35.762260 124079 net.cpp:90] Creating Layer conv3
I0508 16:17:35.762280 124079 net.cpp:410] conv3 <- pool2
I0508 16:17:35.762307 124079 net.cpp:368] conv3 -> conv3
I0508 16:17:35.762336 124079 net.cpp:120] Setting up conv3
I0508 16:17:35.770990 124079 net.cpp:127] Top shape: 4 64 90 120 (2764800)
I0508 16:17:35.771059 124079 layer_factory.hpp:74] Creating layer conv3_bn
I0508 16:17:35.771090 124079 net.cpp:90] Creating Layer conv3_bn
I0508 16:17:35.771112 124079 net.cpp:410] conv3_bn <- conv3
I0508 16:17:35.771142 124079 net.cpp:357] conv3_bn -> conv3 (in-place)
I0508 16:17:35.771169 124079 net.cpp:120] Setting up conv3_bn
I0508 16:17:35.771312 124079 net.cpp:127] Top shape: 4 64 90 120 (2764800)
I0508 16:17:35.771347 124079 layer_factory.hpp:74] Creating layer relu3
I0508 16:17:35.771373 124079 net.cpp:90] Creating Layer relu3
I0508 16:17:35.771394 124079 net.cpp:410] relu3 <- conv3
I0508 16:17:35.771420 124079 net.cpp:357] relu3 -> conv3 (in-place)
I0508 16:17:35.771446 124079 net.cpp:120] Setting up relu3
I0508 16:17:35.772048 124079 net.cpp:127] Top shape: 4 64 90 120 (2764800)
I0508 16:17:35.772102 124079 layer_factory.hpp:74] Creating layer pool3
I0508 16:17:35.772127 124079 layer_factory.cpp:55] CUDNN does not support padding or multiple tops. Using Caffe's own pooling layer.
I0508 16:17:35.772150 124079 net.cpp:90] Creating Layer pool3
I0508 16:17:35.772171 124079 net.cpp:410] pool3 <- conv3
I0508 16:17:35.772199 124079 net.cpp:368] pool3 -> pool3
I0508 16:17:35.772228 124079 net.cpp:368] pool3 -> pool3_mask
I0508 16:17:35.772254 124079 net.cpp:120] Setting up pool3
I0508 16:17:35.772284 124079 net.cpp:127] Top shape: 4 64 45 60 (691200)
I0508 16:17:35.772305 124079 net.cpp:127] Top shape: 4 64 45 60 (691200)
I0508 16:17:35.772323 124079 layer_factory.hpp:74] Creating layer conv4
I0508 16:17:35.772408 124079 net.cpp:90] Creating Layer conv4
I0508 16:17:35.772436 124079 net.cpp:410] conv4 <- pool3
I0508 16:17:35.772460 124079 net.cpp:368] conv4 -> conv4
I0508 16:17:35.772495 124079 net.cpp:120] Setting up conv4
I0508 16:17:35.781141 124079 net.cpp:127] Top shape: 4 64 45 60 (691200)
I0508 16:17:35.781213 124079 layer_factory.hpp:74] Creating layer conv4_bn
I0508 16:17:35.781251 124079 net.cpp:90] Creating Layer conv4_bn
I0508 16:17:35.781275 124079 net.cpp:410] conv4_bn <- conv4
I0508 16:17:35.781306 124079 net.cpp:357] conv4_bn -> conv4 (in-place)
I0508 16:17:35.781335 124079 net.cpp:120] Setting up conv4_bn
I0508 16:17:35.781404 124079 net.cpp:127] Top shape: 4 64 45 60 (691200)
I0508 16:17:35.781435 124079 layer_factory.hpp:74] Creating layer relu4
I0508 16:17:35.781458 124079 net.cpp:90] Creating Layer relu4
I0508 16:17:35.781477 124079 net.cpp:410] relu4 <- conv4
I0508 16:17:35.781498 124079 net.cpp:357] relu4 -> conv4 (in-place)
I0508 16:17:35.781520 124079 net.cpp:120] Setting up relu4
I0508 16:17:35.781882 124079 net.cpp:127] Top shape: 4 64 45 60 (691200)
I0508 16:17:35.781925 124079 layer_factory.hpp:74] Creating layer pool4
I0508 16:17:35.781947 124079 layer_factory.cpp:55] CUDNN does not support padding or multiple tops. Using Caffe's own pooling layer.
I0508 16:17:35.781978 124079 net.cpp:90] Creating Layer pool4
I0508 16:17:35.782001 124079 net.cpp:410] pool4 <- conv4
I0508 16:17:35.782027 124079 net.cpp:368] pool4 -> pool4
I0508 16:17:35.782055 124079 net.cpp:368] pool4 -> pool4_mask
I0508 16:17:35.782080 124079 net.cpp:120] Setting up pool4
I0508 16:17:35.782107 124079 net.cpp:127] Top shape: 4 64 23 30 (176640)
I0508 16:17:35.782130 124079 net.cpp:127] Top shape: 4 64 23 30 (176640)
I0508 16:17:35.782147 124079 layer_factory.hpp:74] Creating layer upsample4
I0508 16:17:35.782178 124079 net.cpp:90] Creating Layer upsample4
I0508 16:17:35.782199 124079 net.cpp:410] upsample4 <- pool4
I0508 16:17:35.782220 124079 net.cpp:410] upsample4 <- pool4_mask
I0508 16:17:35.782243 124079 net.cpp:368] upsample4 -> upsample4
I0508 16:17:35.782272 124079 net.cpp:120] Setting up upsample4
I0508 16:17:35.782299 124079 upsample_layer.cpp:31] Params 'pad_out_{}_' are deprecated. Please declare upsample height and width useing the upsample_h, upsample_w parameters.
I0508 16:17:35.782327 124079 net.cpp:127] Top shape: 4 64 45 60 (691200)
I0508 16:17:35.782347 124079 layer_factory.hpp:74] Creating layer conv_decode4
I0508 16:17:35.782378 124079 net.cpp:90] Creating Layer conv_decode4
I0508 16:17:35.782400 124079 net.cpp:410] conv_decode4 <- upsample4
I0508 16:17:35.782428 124079 net.cpp:368] conv_decode4 -> conv_decode4
I0508 16:17:35.782456 124079 net.cpp:120] Setting up conv_decode4
I0508 16:17:35.791121 124079 net.cpp:127] Top shape: 4 64 45 60 (691200)
I0508 16:17:35.791188 124079 layer_factory.hpp:74] Creating layer conv_decode4_bn
I0508 16:17:35.791225 124079 net.cpp:90] Creating Layer conv_decode4_bn
I0508 16:17:35.791249 124079 net.cpp:410] conv_decode4_bn <- conv_decode4
I0508 16:17:35.791273 124079 net.cpp:357] conv_decode4_bn -> conv_decode4 (in-place)
I0508 16:17:35.791301 124079 net.cpp:120] Setting up conv_decode4_bn
I0508 16:17:35.791380 124079 net.cpp:127] Top shape: 4 64 45 60 (691200)
I0508 16:17:35.791411 124079 layer_factory.hpp:74] Creating layer upsample3
I0508 16:17:35.791437 124079 net.cpp:90] Creating Layer upsample3
I0508 16:17:35.791457 124079 net.cpp:410] upsample3 <- conv_decode4
I0508 16:17:35.791478 124079 net.cpp:410] upsample3 <- pool3_mask
I0508 16:17:35.791506 124079 net.cpp:368] upsample3 -> upsample3
I0508 16:17:35.791533 124079 net.cpp:120] Setting up upsample3
I0508 16:17:35.791553 124079 upsample_layer.cpp:31] Params 'pad_out_{}_' are deprecated. Please declare upsample height and width useing the upsample_h, upsample_w parameters.
I0508 16:17:35.791577 124079 net.cpp:127] Top shape: 4 64 90 120 (2764800)
I0508 16:17:35.791597 124079 layer_factory.hpp:74] Creating layer conv_decode3
I0508 16:17:35.791623 124079 net.cpp:90] Creating Layer conv_decode3
I0508 16:17:35.791673 124079 net.cpp:410] conv_decode3 <- upsample3
I0508 16:17:35.791736 124079 net.cpp:368] conv_decode3 -> conv_decode3
I0508 16:17:35.791767 124079 net.cpp:120] Setting up conv_decode3
I0508 16:17:35.800478 124079 net.cpp:127] Top shape: 4 64 90 120 (2764800)
I0508 16:17:35.800544 124079 layer_factory.hpp:74] Creating layer conv_decode3_bn
I0508 16:17:35.800580 124079 net.cpp:90] Creating Layer conv_decode3_bn
I0508 16:17:35.800604 124079 net.cpp:410] conv_decode3_bn <- conv_decode3
I0508 16:17:35.800628 124079 net.cpp:357] conv_decode3_bn -> conv_decode3 (in-place)
I0508 16:17:35.800655 124079 net.cpp:120] Setting up conv_decode3_bn
I0508 16:17:35.800799 124079 net.cpp:127] Top shape: 4 64 90 120 (2764800)
I0508 16:17:35.800839 124079 layer_factory.hpp:74] Creating layer upsample2
I0508 16:17:35.800879 124079 net.cpp:90] Creating Layer upsample2
I0508 16:17:35.800900 124079 net.cpp:410] upsample2 <- conv_decode3
I0508 16:17:35.800921 124079 net.cpp:410] upsample2 <- pool2_mask
I0508 16:17:35.800945 124079 net.cpp:368] upsample2 -> upsample2
I0508 16:17:35.800971 124079 net.cpp:120] Setting up upsample2
I0508 16:17:35.800990 124079 upsample_layer.cpp:31] Params 'pad_out_{}_' are deprecated. Please declare upsample height and width useing the upsample_h, upsample_w parameters.
I0508 16:17:35.801014 124079 net.cpp:127] Top shape: 4 64 180 240 (11059200)
I0508 16:17:35.801034 124079 layer_factory.hpp:74] Creating layer conv_decode2_flow
I0508 16:17:35.801070 124079 net.cpp:90] Creating Layer conv_decode2_flow
I0508 16:17:35.801093 124079 net.cpp:410] conv_decode2_flow <- upsample2
I0508 16:17:35.801122 124079 net.cpp:368] conv_decode2_flow -> conv_decode2
I0508 16:17:35.801151 124079 net.cpp:120] Setting up conv_decode2_flow
I0508 16:17:35.817523 124079 net.cpp:127] Top shape: 4 128 180 240 (22118400)
I0508 16:17:35.817589 124079 layer_factory.hpp:74] Creating layer conv_decode2_bn_flow
I0508 16:17:35.817625 124079 net.cpp:90] Creating Layer conv_decode2_bn_flow
I0508 16:17:35.817651 124079 net.cpp:410] conv_decode2_bn_flow <- conv_decode2
I0508 16:17:35.817679 124079 net.cpp:357] conv_decode2_bn_flow -> conv_decode2 (in-place)
I0508 16:17:35.817708 124079 net.cpp:120] Setting up conv_decode2_bn_flow
I0508 16:17:35.818152 124079 net.cpp:127] Top shape: 4 128 180 240 (22118400)
I0508 16:17:35.818193 124079 layer_factory.hpp:74] Creating layer upsample1
I0508 16:17:35.818219 124079 net.cpp:90] Creating Layer upsample1
I0508 16:17:35.818240 124079 net.cpp:410] upsample1 <- conv_decode2
I0508 16:17:35.818260 124079 net.cpp:410] upsample1 <- pool1_mask
I0508 16:17:35.818286 124079 net.cpp:368] upsample1 -> upsample1
I0508 16:17:35.818313 124079 net.cpp:120] Setting up upsample1
I0508 16:17:35.818334 124079 upsample_layer.cpp:31] Params 'pad_out_{}_' are deprecated. Please declare upsample height and width useing the upsample_h, upsample_w parameters.
I0508 16:17:35.818357 124079 net.cpp:127] Top shape: 4 128 360 480 (88473600)
I0508 16:17:35.818377 124079 layer_factory.hpp:74] Creating layer conv_decode1_flow
I0508 16:17:35.818403 124079 net.cpp:90] Creating Layer conv_decode1_flow
I0508 16:17:35.818423 124079 net.cpp:410] conv_decode1_flow <- upsample1
I0508 16:17:35.818450 124079 net.cpp:368] conv_decode1_flow -> conv_decode1
I0508 16:17:35.818478 124079 net.cpp:120] Setting up conv_decode1_flow
I0508 16:17:35.835278 124079 net.cpp:127] Top shape: 4 64 360 480 (44236800)
I0508 16:17:35.835356 124079 layer_factory.hpp:74] Creating layer conv_decode1_bn
I0508 16:17:35.835394 124079 net.cpp:90] Creating Layer conv_decode1_bn
I0508 16:17:35.835419 124079 net.cpp:410] conv_decode1_bn <- conv_decode1
I0508 16:17:35.835443 124079 net.cpp:357] conv_decode1_bn -> conv_decode1 (in-place)
I0508 16:17:35.835469 124079 net.cpp:120] Setting up conv_decode1_bn
I0508 16:17:35.837079 124079 net.cpp:127] Top shape: 4 64 360 480 (44236800)
I0508 16:17:35.837123 124079 layer_factory.hpp:74] Creating layer dense_softmax_inner_prod
I0508 16:17:35.837160 124079 net.cpp:90] Creating Layer dense_softmax_inner_prod
I0508 16:17:35.837206 124079 net.cpp:410] dense_softmax_inner_prod <- conv_decode1
I0508 16:17:35.837270 124079 net.cpp:368] dense_softmax_inner_prod -> conv_classifier
I0508 16:17:35.837306 124079 net.cpp:120] Setting up dense_softmax_inner_prod
I0508 16:17:35.840003 124079 net.cpp:127] Top shape: 4 11 360 480 (7603200)
I0508 16:17:35.840070 124079 layer_factory.hpp:74] Creating layer conv_classifier_dense_softmax_inner_prod_0_split
I0508 16:17:35.840101 124079 net.cpp:90] Creating Layer conv_classifier_dense_softmax_inner_prod_0_split
I0508 16:17:35.840129 124079 net.cpp:410] conv_classifier_dense_softmax_inner_prod_0_split <- conv_classifier
I0508 16:17:35.840154 124079 net.cpp:368] conv_classifier_dense_softmax_inner_prod_0_split -> conv_classifier_dense_softmax_inner_prod_0_split_0
I0508 16:17:35.840183 124079 net.cpp:368] conv_classifier_dense_softmax_inner_prod_0_split -> conv_classifier_dense_softmax_inner_prod_0_split_1
I0508 16:17:35.840209 124079 net.cpp:120] Setting up conv_classifier_dense_softmax_inner_prod_0_split
I0508 16:17:35.840235 124079 net.cpp:127] Top shape: 4 11 360 480 (7603200)
I0508 16:17:35.840257 124079 net.cpp:127] Top shape: 4 11 360 480 (7603200)
I0508 16:17:35.840276 124079 layer_factory.hpp:74] Creating layer loss
I0508 16:17:35.840309 124079 net.cpp:90] Creating Layer loss
I0508 16:17:35.840332 124079 net.cpp:410] loss <- conv_classifier_dense_softmax_inner_prod_0_split_0
I0508 16:17:35.840353 124079 net.cpp:410] loss <- label_label_0_split_0
I0508 16:17:35.840380 124079 net.cpp:368] loss -> loss
I0508 16:17:35.840418 124079 net.cpp:120] Setting up loss
I0508 16:17:35.840454 124079 layer_factory.hpp:74] Creating layer loss
I0508 16:17:35.884245 124079 net.cpp:127] Top shape: (1)
I0508 16:17:35.884321 124079 net.cpp:129]     with loss weight 1
I0508 16:17:35.884428 124079 layer_factory.hpp:74] Creating layer accuracy
I0508 16:17:35.884462 124079 net.cpp:90] Creating Layer accuracy
I0508 16:17:35.884486 124079 net.cpp:410] accuracy <- conv_classifier_dense_softmax_inner_prod_0_split_1
I0508 16:17:35.884510 124079 net.cpp:410] accuracy <- label_label_0_split_1
I0508 16:17:35.884541 124079 net.cpp:368] accuracy -> accuracy
I0508 16:17:35.884568 124079 net.cpp:368] accuracy -> per_class_accuracy
I0508 16:17:35.884601 124079 net.cpp:120] Setting up accuracy
I0508 16:17:35.884624 124079 accuracy_layer.cpp:24] Per-class accuracies currently only work on TRAIN phase only.
I0508 16:17:35.884657 124079 net.cpp:127] Top shape: (1)
I0508 16:17:35.884682 124079 net.cpp:127] Top shape: 11 1 1 1 (11)
I0508 16:17:35.884702 124079 net.cpp:194] accuracy does not need backward computation.
I0508 16:17:35.884722 124079 net.cpp:192] loss needs backward computation.
I0508 16:17:35.884742 124079 net.cpp:192] conv_classifier_dense_softmax_inner_prod_0_split needs backward computation.
I0508 16:17:35.884760 124079 net.cpp:192] dense_softmax_inner_prod needs backward computation.
I0508 16:17:35.884778 124079 net.cpp:192] conv_decode1_bn needs backward computation.
…
